…
    "- convolutional layer with 1 kernels of 3 x 3 size and ReLU activation\n",
    "\n",
    "The summary function shows the parameters of the network, especially the output shape of each layer."
   ]
  },
  {
   "cell_type": "code",
   "execution_count": 24,
   "metadata": {},
   "outputs": [
    {
     "name": "stdout",
     "output_type": "stream",
     "text": [
      "Model: \"sequential_2\"\n",
      "_________________________________________________________________\n",
      "Layer (type)                 Output Shape              Param #   \n",
      "=================================================================\n",
      "conv2d_10 (Conv2D)           (None, 28, 28, 32)        320       \n",
      "_________________________________________________________________\n",
      "max_pooling2d_4 (MaxPooling2 (None, 14, 14, 32)        0         \n",
      "_________________________________________________________________\n",
      "conv2d_11 (Conv2D)           (None, 14, 14, 64)        18496     \n",
      "_________________________________________________________________\n",
      "max_pooling2d_5 (MaxPooling2 (None, 7, 7, 64)          0         \n",
      "_________________________________________________________________\n",
      "conv2d_12 (Conv2D)           (None, 7, 7, 128)         73856     \n",
      "_________________________________________________________________\n",
      "conv2d_13 (Conv2D)           (None, 7, 7, 128)         147584    \n",
      "_________________________________________________________________\n",
      "up_sampling2d_4 (UpSampling2 (None, 14, 14, 128)       0         \n",
      "_________________________________________________________________\n",
      "conv2d_14 (Conv2D)           (None, 14, 14, 64)        73792     \n",
      "_________________________________________________________________\n",
      "up_sampling2d_5 (UpSampling2 (None, 28, 28, 64)        0         \n",
      "_________________________________________________________________\n",
      "conv2d_15 (Conv2D)           (None, 28, 28, 1)         577       \n",
      "=================================================================\n",
      "Total params: 314,625\n",
      "Trainable params: 314,625\n",
      "Non-trainable params: 0\n",
      "_________________________________________________________________\n"
     ]
    }
   ],
   "source": [
    "model=Sequential()\n",
    "\n",
    "#encoder\n",
    "model.add(Conv2D(32, kernel_size=(3, 3), activation='relu', input_shape=input_shape,padding='same'))\n",
…
